models/2023-08-29-22:50:46.pt (torch, 205287 bytes, 4 tensors)

fc1.weight f4 [64, 784]
000000 a1 ae df 3c 2c d6 f2 3c 37 15 09 bc 35 61 06 3d
       0.02730495 0.02964314 -0.008366874 0.032807548
000010 f7 34 00 bc 1c 27 ec 3b 9c 70 8e bc 77 d2 ab 3c
       -0.007825128 0.0072068106 -0.01738768 0.02097438
000020 07 f5 00 3d 7e a3 d6 bc 4e 4d fe 3c a5 07 db 3b
       0.031483676 -0.026201006 0.031042721 0.006684261
000030 f3 a8 74 3c 9c fd cf bd b8 a0 b6 bd 27 98 7c bc
       0.014932859 -0.10155794 -0.089173734 -0.015417135
000040 08 8a e1 3c 8a fa ac 3b 83 95 88 bc e5 26 15 3c
       0.027531639 0.00527889 -0.016672855 0.009103511
000050 63 cc 86 bc 25 3e 89 bb 21 a9 6d bc 5a 15 c2 3c
       -0.016454881 -0.0041883164 -0.0145056555 0.023691822
000060 7a f2 e6 bc e3 e0 86 bc c5 3a 25 bc 47 ea af bc
       -0.028191794 -0.016464656 -0.0100848125 -0.021474017
000070 13 e9 5c 3b bd 7b 10 bd aa 1c 04 3d b8 87 f8 bc
       0.003370826 -0.035274256 0.0322539 -0.030338153
000080 c9 07 17 3d 9b 8a ba 3d 94 39 ab 3e 2c 3a ec 3e
       0.03687266 0.09108468 0.33442366 0.46138132
000090 42 ac 56 3e 65 b6 ac 3e 86 24 af 3e e4 4a 09 3f
       0.20964149 0.33732906 0.34207553 0.536299
0000a0 fa 05 91 3e ba 99 a6 3e 1b 56 2a 3e 74 df 20 3f
       0.28324872 0.3253916 0.16634409 0.6284096
0000b0 df 9c 91 3e 11 e7 aa 3e 3a 5a 12 3f 74 a9 d3 3b
       0.28439996 0.33379415 0.57168925 0.0064594094
0000c0 fa 93 94 3c e3 52 b2 bc 2a cf 8b 3d 12 f5 b7 3d
       0.018136967 -0.02176804 0.06826623 0.0898229
0000d0 b3 68 e0 bc f5 10 f0 3c 1c 8a 28 3c c5 5f 72 3c
       -0.027393674 0.02930496 0.010286834 0.014793341
0000e0 d7 0e 39 3c b7 dd 22 ba 05 f8 e4 3c 41 e0 cf bc
       0.011295042 -0.00062128477 0.027950296 -0.025375487
0000f0 99 ac 90 3e bc 8c 18 3f b7 86 32 3f 59 60 c7 3e
       0.28256682 0.59589744 0.6973681 0.38940695
000100 dc 16 11 3f 42 44 11 3f 3f 2d 46 3e 50 d3 4e 3d
       0.56675506 0.5674478 0.19353198 0.050494492
000110 ef ff 86 3e cd 7e a1 3e f6 df 82 3e 56 b7 07 3d
       0.26367137 0.31542054 0.25561494 0.033133827
000120 54 eb 25 bd 4f 76 ac be cf 67 79 be 73 10 86 3d
       -0.04050763 -0.33684012 -0.24356006 0.06546106
000130 a3 16 92 bc c6 13 a9 3e 21 c1 c4 3e 82 db 58 3d
       -0.01783306 0.33022898 0.38428596 0.052943714
000140 60 17 97 bc 0c 73 c7 bc 65 3b 9b 3c 73 84 6c bc
       -0.018443763 -0.02434685 0.01894922 -0.014435875
000150 8e 91 b1 3c d3 da 0a bc 43 5d a7 3c 99 b7 a5 3d
       0.021675851 -0.008475023 0.020430213 0.08091659
000160 c4 24 f5 3e 92 17 7c 3f e0 9e 08 3f cb 0a 9e 3e
       0.47879612 0.98473465 0.53367424 0.3086761
000170 d6 06 e7 3e 75 86 b0 3f 47 ee 63 3f 47 07 02 3f
       0.45122403 1.3791033 0.8903546 0.50792354
000180 9c 39 7f 3e ba 27 a9 3e 94 50 4a 3e 25 60 03 be
       0.2492432 0.3303812 0.197573 -0.12829645
000190 58 09 48 3e 2a 80 91 3e 0a 97 f5 3d 4f 1c 1c bc
       0.19534814 0.28418094 0.11991699 -0.009528234
0001a0 42 23 ca 3d 64 91 aa 3e fb a5 51 3e 58 86 af bc
       0.09870006 0.3331405 0.20473473 -0.021426365
0001b0 e1 af 4b 3d 00 7d 1d be 7f 3a 12 3d a5 09 dd 3b
       0.049728278 -0.15379715 0.035700317 0.0067455345
0001c0 45 51 34 3c a8 1c 0a be 3c 27 c0 bc e8 8b 5c 3d
       0.011005704 -0.13487494 -0.023456208 0.053844362
0001d0 c7 fb d1 3e a1 1e 65 3e 1a d1 11 3f 04 25 e0 3e
       0.41012403 0.22374965 0.5695969 0.4377824
0001e0 d6 87 ff 3e 3a 58 a2 3e 62 e3 b6 3d 71 21 dd 3a
       0.49908322 0.31707937 0.089300886 0.0016870928
0001f0 71 fe 45 bb a2 c8 f4 3d 7d 4a dc 3e 3a 0f 20 3e
       -0.0030211473 0.1195233 0.4302558 0.15630808
000200 37 df f1 3d 57 7a c9 3e 06 3e 44 3e c1 22 78 be
       0.11810153 0.3935115 0.19164285 -0.24232008
000210 0c 8e bc be f0 f2 8d bd b9 b2 f0 be ff 2f 2a bf
       -0.36827123 -0.06931102 -0.47011355 -0.66479486
000220 8a cf 9f be 3b b6 18 3e 4b ed 00 be 4a a4 ff bb
       -0.31213027 0.14913265 -0.1259052 -0.007801567
000230 45 cf 63 3c 4a 1a f0 bc ac 36 d9 3c f5 a2 b8 bd
       0.013904397 -0.02930941 0.026515327 -0.090154566
000240 fb 87 8e 3f 15 74 50 3f b3 05 4b 3f e2 1c 00 3f
       1.1135248 0.8142713 0.7930557 0.5004407
000250 80 73 3b 3f bc a4 0e 3e fa 41 e3 bd da 98 5c bd
       0.73223114 0.13930029 -0.110965684 -0.053856708
000260 80 a8 92 3d 10 aa 60 bd 95 9c 39 3e be e9 23 be
       0.07161045 -0.054849684 0.18126138 -0.16007134
000270 a7 99 52 be 95 51 85 be 43 4f 9d be 75 ef df be
       -0.20566426 -0.26038805 -0.30724534 -0.4373738
000280 a7 67 c4 be 70 fb 00 bf 3e 94 15 bf a2 aa 3c bf
       -0.3836033 -0.50383663 -0.58429325 -0.73697865
000290 e1 36 69 bf 65 21 36 3e 12 84 b6 3d a1 4d fb 3c
       -0.91099364 0.17786177 0.08911909 0.030676665
0002a0 f7 74 02 3c 75 df a1 bc 20 97 8c 3e 65 1d 02 bf
       0.007962457 -0.019759873 0.2745905 -0.508261
0002b0 81 86 02 3f 89 5d 40 3f 30 b3 cf 3e cf 00 40 3f
       0.50986487 0.75142723 0.40566397 0.75001234
0002c0 5b 67 08 3f bd e2 c7 bd ef a7 9c be 23 68 9d 3d
       0.5328271 -0.09760044 -0.30596873 0.07685878
0002d0 94 18 56 bd e9 1f 63 be 29 e4 d0 be 56 4a 00 bf
       -0.052269533 -0.22180142 -0.40799072 -0.5011343
0002e0 a6 4c 98 be 00 15 9b be 13 31 13 bf ce 01 27 bf
       -0.29745978 -0.3028946 -0.57496756 -0.6523713
0002f0 36 3a c7 be 5b b9 a7 3e 7d 5f 1f bd 36 13 84 be
       -0.389116 0.32758602 -0.038909424 -0.25795907
000300 e8 8a b8 be 7e 1b 8d 3c ca 2f bc 3e fc 02 03 bc
       -0.36043477 0.017225023 0.3675521 -0.007996317
000310 00 9e 08 3a 5c c0 0b bb 09 4a e0 3e e4 92 0b bf
       0.0005211532 -0.0021324372 0.43806484 -0.5452101
000320 86 8f 29 bf 36 89 78 3f a0 26 7b 3f 79 74 5e 3f
       -0.66234624 0.9708437 0.9810581 0.86896473
000330 07 0a e0 3d 87 23 22 be 13 7a 35 3e bd c1 90 bd
       0.109394126 -0.15833865 0.17722349 -0.07068203
000340 a2 ba c2 bc 33 c6 e1 bc 0e f2 ce be 70 7e 04 bf
       -0.023770634 -0.027560329 -0.40419048 -0.5175543
000350 89 84 ef be b7 77 6f be c2 14 1a bf 3b 45 2f be
       -0.46780804 -0.23385511 -0.60187924 -0.17116253
000360 b1 e8 a7 be 6b 05 c3 bd 5f 49 a3 3e b7 75 30 3e
       -0.32794717 -0.09522518 0.31891915 0.17232405
000370 2b eb 9c 3d 22 1d e3 be 53 c8 47 be 4a b1 cb bd
       0.07662042 -0.44358164 -0.19510011 -0.099459246
000380 92 86 11 bd 3a cf c3 3c d6 3b 5c 3f 27 6a 04 bf
       -0.035528727 0.023902524 0.860288 -0.51724476
000390 7a 3d d8 be 10 aa 19 3f c3 05 15 3f 90 f4 09 3f
       -0.42234403 0.6002512 0.58211917 0.538888
0003a0 38 81 a1 3e 1d 53 ea 3e b7 0f 88 3e 18 4d fc 3d
       0.315439 0.45766535 0.2657449 0.12319392
0003b0 6e bc 2b bd de ff 09 bf 73 0f 59 bf 60 a1 51 bf
       -0.041927747 -0.5390605 -0.847892 -0.81886864
0003c0 2c 15 ca be 00 02 87 be 86 72 c1 be 74 a9 6f bd
       -0.39469278 -0.26368713 -0.37782687 -0.058511212
0003d0 98 05 5f 3d 8e 4f 63 be eb 4b d8 3d 95 26 06 be
       0.054448694 -0.22198316 0.10561355 -0.13100655
0003e0 ff e8 c6 be 51 a3 f8 3d b0 90 cc be 60 4d f3 bd
       -0.38849637 0.12140525 -0.39954138 -0.118799925
0003f0 e5 7b ce bb c0 d2 8d bc ec b1 25 3e 6a 38 82 3b
       -0.0063013905 -0.017312407 0.16181153 0.0039740102

fc1.bias f4 [64]
000000 e5 51 66 3c 10 a3 bb 3e ca 3c bc bb f4 57 db bc
       0.014057611 0.36647844 -0.0057445513 -0.026775338
000010 57 65 3d 3f f6 7e 3f bd ee 2f 0e 3e 28 3e be 3e
       0.7398276 -0.04675194 0.13885471 0.37156796
000020 a0 7d c8 3c f7 91 3e be 2c 34 19 be 47 1e 1f bd
       0.024473965 -0.18610369 -0.14961308 -0.038847234
000030 dd 10 75 bd 1e 42 f7 3d ef 5d 0f bf 41 ee 8c bd
       -0.059830535 0.12073158 -0.56002706 -0.06881381
000040 75 1d e9 3c ae ed ce 3d a8 0b e1 3a e5 f8 9f be
       0.028456429 0.101039276 0.0017169612 -0.3124458
000050 52 54 f1 3d 2f cd cd bc 44 c6 cc bc 4c 9f d3 be
       0.11783661 -0.025122253 -0.024996884 -0.4133247
000060 ef 5c 26 bd 0c b9 0e 3e 99 48 88 be ba 41 8c be
       -0.040615972 0.13937777 -0.26617888 -0.27393895
000070 85 41 7c 3e e2 d8 bb be 89 e0 d9 bd eb ee 99 be
       0.24634369 -0.36688906 -0.1063853 -0.30065092
000080 e8 a4 95 be 6a 53 17 bf 15 5a 31 be b9 be 3f bf
       -0.29227376 -0.59111655 -0.1731952 -0.74900395
000090 0a 91 f4 be b4 67 80 3c 3e 30 2e bf 3a a4 c9 3d
       -0.47766906 0.01567445 -0.6804236 0.09845777
0000a0 8f c4 01 3f f5 25 85 3d 88 3b 19 3f 11 ad 3c 3e
       0.5069055 0.0650138 0.5985646 0.18425395
0000b0 14 ba 05 bf 6f 37 90 bd 15 9e 6b be ca 9e 8e 3e
       -0.5223706 -0.07041823 -0.23009522 0.2785552
0000c0 3c 43 c5 be 55 25 d8 3e ca 4a 4a bd 72 3c 9e 3e
       -0.38527858 0.42215982 -0.04938773 0.3090549
0000d0 b1 e0 58 3e bd 50 81 be 0f a1 8a 3e 0e de 82 be
       0.21179463 -0.2525691 0.27076003 -0.2556004
0000e0 07 ab ae bd ac 82 a1 be 5f 3d d9 bd 79 63 26 be
       -0.085287146 -0.31545007 -0.10607409 -0.16248883
0000f0 c7 1b 15 3e d0 e2 fb 3e ab 5d a8 3d 97 4d 13 be
       0.14561377 0.49196482 0.08220991 -0.14385067

fc2.weight f4 [10, 64]
000000 67 5e 60 3e 59 63 96 be d8 fa 5f bd 3d a0 16 bc
       0.21911012 -0.2937267 -0.054682583 -0.009193477
000010 51 86 dc be c5 af fb 3e 00 93 8e 3d 6d 6a 3b bf
       -0.43071225 0.4915754 0.06961632 -0.7320927
000020 b0 2f 27 3e 47 c6 8c be 74 c2 2c bf 0e c1 08 bf
       0.16326785 -0.27495024 -0.6748421 -0.5341958
000030 85 75 c6 3e 75 89 be be 95 bb 69 bd c7 47 75 be
       0.38761535 -0.37214246 -0.057063658 -0.23953162
000040 fc 3c 22 be 6e 84 1b bf 9b f3 f6 be 97 f8 f7 be
       -0.15843576 -0.60748947 -0.4823273 -0.48431846
000050 4a a3 77 bd c0 30 87 3d b4 09 00 bb b1 dc 20 bf
       -0.06045846 0.06601095 -0.0019537034 -0.6283675
000060 79 38 d0 bc 3f 25 3f bf 0e 98 f5 3e 07 4f 8f 3e
       -0.025417553 -0.7466621 0.4796757 0.2798998
000070 03 8f 44 3e e9 f4 db be 8c a8 d4 3d 1d 6d 54 bc
       0.1919518 -0.4296029 0.1038371 -0.012965468
000080 3a 1c 62 3e 38 e1 16 3d ca 24 07 bf 2f 92 d2 3e
       0.2208108 0.03683588 -0.5279051 0.41127154
000090 d6 6b da be a5 d5 17 bf 51 a4 96 3e d9 02 e7 3d
       -0.42660397 -0.5931037 0.29422238 0.1127984
0000a0 e5 55 4c be 4e a1 b0 3c 86 7a 20 3e a5 1b e9 3b
       -0.19954641 0.021561291 0.15671739 0.007113891
0000b0 f7 ab da 3e db 43 2b be 73 9c 1d be bb f4 44 3e
       0.42709324 -0.16725104 -0.15391712 0.19233982
0000c0 19 ad 7c 3e 7f 01 89 3e 5c 13 f1 bc e4 bb d7 3d
       0.24675407 0.26758954 -0.029428177 0.10533884
0000d0 34 f0 ac be c2 65 90 be fb b5 82 be 09 3f 44 bf
       -0.3377701 -0.28202635 -0.25529465 -0.76658684
0000e0 d4 b5 af 3c d2 89 98 3c 72 46 8e bd 75 6e bb be
       0.021449007 0.018620405 -0.0694703 -0.3660771
0000f0 22 64 39 bd 26 dd 04 bf cf f7 c4 be 7b 6a 1d 3d
       -0.04526151 -0.51899946 -0.38470313 0.038431626
000100 6a c7 3a bf 86 ae f7 bd 4e 32 23 3e 8a ce 2d be
       -0.7296053 -0.120938346 0.15937158 -0.1697332
000110 c9 c0 0b 3d 85 e3 5e bf c4 9b 14 be 84 9b 7d bd
       0.0341194 -0.8706592 -0.14512545 -0.06191589
000120 15 dc f0 3d 4e 04 3d be 16 95 bc 3e 2d 9b a3 3c
       0.11760727 -0.18458673 0.36832494 0.019971455
000130 61 b2 86 bd 81 80 6c 3e ab fd 92 be ea 62 72 be
       -0.06576992 0.23095895 -0.28709158 -0.23670545
000140 ae a4 52 bf 0b 1d a0 be fa fd 9b be c4 9d 9b 3d
       -0.8228253 -0.31272158 -0.30467206 0.07598451
000150 ab 94 6f be ae 65 a9 3e 99 6e eb bb f5 59 4c be
       -0.23396556 0.33085388 -0.007184815 -0.19956191
000160 71 23 24 bf 4d 22 c4 3d 2b 63 14 3d 60 21 02 be
       -0.6411658 0.09576855 0.036227386 -0.12708044
000170 19 f4 8c 3e db 08 12 be 45 55 b3 bc e2 6c 8f bd
       0.27529982 -0.1426119 -0.021891246 -0.070031896
000180 ee 8b c6 3d b8 e4 42 3e 8b 24 a9 3c 50 4b 21 be
       0.09694658 0.19032562 0.020647308 -0.15751386
000190 6b 43 72 be b6 31 ed 3e ef 97 22 bf 50 ea 62 bf
       -0.2365853 0.4632699 -0.6351308 -0.8863878
0001a0 7e f0 20 3e d7 fa 03 bf 4f 71 34 3f 62 e2 77 3e
       0.1571674 -0.51554626 0.70485395 0.24207452
0001b0 81 ee 09 bf 8e 73 07 be 8e 32 ee 3d 52 c7 de be
       -0.53879553 -0.13227674 0.11630736 -0.43511444
0001c0 f1 91 aa be 5d 3d 14 bf 7f da 05 3d 52 cf 37 bf
       -0.3331447 -0.5790613 0.032679077 -0.7180072
0001d0 38 b9 5b 3e e1 42 5e bf c9 3a c0 3e e0 db 8d 3e
       0.21457374 -0.868208 0.3754485 0.27706814
0001e0 40 ee 68 3d 88 3b 77 3e 4c 87 10 bd c5 1d 02 3f
       0.056867838 0.24143803 -0.03528528 0.50826675
0001f0 a0 17 9a 3e 9c 56 49 3e 29 7b 39 3f b1 92 30 3d
       0.3009615 0.19661945 0.7245355 0.043108646
000200 cc ab 3b bf 38 4c 6f 3e 5b 22 d4 3e c6 cd 54 bd
       -0.73309016 0.23368919 0.4143246 -0.051954053
000210 28 1c 84 bf 96 20 36 be 44 b8 5e be 27 7d 57 3e
       -1.0321093 -0.17785868 -0.2174998 0.21043836
000220 8d 86 41 3d f5 d1 4d 3e 26 c9 69 bd 5d c7 cb 3d
       0.04724746 0.20099624 -0.057076596 0.09950135
000230 6f e0 97 3e b1 4d c3 be 92 b0 a8 3d b9 e2 4b 3d
       0.29663417 -0.3814521 0.08236803 0.049776766
000240 30 ad f8 3d f9 3c c7 bd db ce b2 bd 66 9c e7 be
       0.12142408 -0.097284265 -0.08730861 -0.4523651
000250 42 a4 f5 be 45 b9 9b 3e b6 46 ce bc 32 3e 82 be
       -0.4797688 0.30414787 -0.025180202 -0.25438076
000260 70 36 be be b2 17 78 3e 1f 8a 78 3e 27 43 a5 3c
       -0.37150908 0.24227789 0.24271439 0.020173622
000270 a8 8a aa 3e a3 bb a8 3e 28 d7 f4 bc 93 0d 71 3e
       0.3330891 0.32955655 -0.02988775 0.23540334
000280 36 38 04 3e da cd 63 3e 1f 48 df 3e de a0 7c 3d
       0.12912068 0.22246495 0.43609712 0.061676852
000290 e4 60 ab be 82 a8 f0 be 75 c4 d9 be 18 5b 3f 3e
       -0.3347236 -0.4700356 -0.42532697 0.18687093
0002a0 fd 49 fb 3e 8e ed 27 be ab 33 3f be 58 7b 65 be
       0.49079886 -0.16399214 -0.18672054 -0.22410333
0002b0 c2 f5 9a 3e f1 28 32 3b 63 09 da be 7b 9b fb be
       0.30265623 0.0027185048 -0.42585286 -0.4914206
0002c0 08 4e be bd 9b c2 31 3e ae 8b 22 3d c0 73 d3 3e
       -0.09292227 0.17359392 0.03968399 0.41299248
0002d0 49 11 8c 3e 88 5f d4 bd 2e 7c 78 3e 8e 62 87 3e
       0.27356938 -0.10369784 0.24266121 0.2644238
0002e0 66 00 a5 3d 5d 9d 0b bf 95 74 f8 3c b6 0c 90 be
       0.080567166 -0.5453699 0.030329028 -0.28134698
0002f0 35 4a 35 bf b6 e2 92 3d 4c df 76 3c 8b a5 7b bd
       -0.70816356 0.07172148 0.015067887 -0.06143717
000300 1f 7f de be 4e eb ea bc d6 d4 1a be ca 67 72 bc
       -0.4345636 -0.028676655 -0.15120253 -0.014795253
000310 4d 0a 74 be 58 c5 5a 3e 88 b2 eb be 81 7a d4 be
       -0.23832054 0.21364343 -0.46034646 -0.41499713
000320 e8 46 d0 be c0 7d 68 3e 3f dd ff 3c 60 59 59 3e
       -0.40679097 0.2270422 0.031233428 0.212255
000330 de 44 8f 3d fc 19 a4 3e ca 60 75 3e 8f 43 9c 3e
       0.06995557 0.32051075 0.23962703 0.30520293
000340 31 e2 1a be d0 9e df bc 35 7e 2c 3e bd c8 a0 3d
       -0.15125348 -0.027297407 0.16845019 0.07850788
000350 44 77 90 be 65 70 a1 bd b5 70 85 3c 8c 95 e8 3e
       -0.28215992 -0.07882766 0.016289094 0.45426595
000360 93 06 76 3e c4 ff 21 3e d8 66 e8 bd 38 2e a3 3c
       0.24025945 0.15820223 -0.11347741 0.0199195
000370 58 33 b5 3b 8c 62 03 3f 30 82 6c 3c 20 c2 2f 3e
       0.0055298023 0.51322246 0.014435336 0.17163897
000380 4a 98 89 bd b0 65 9d 3e ed 80 c2 3e de ce 80 be
       -0.067185 0.30741644 0.37988988 -0.25157827
000390 f7 b6 54 3e b8 16 8a 3e a4 34 73 3e f6 d1 8a be
       0.2077292 0.26970458 0.2375055 -0.27113312
0003a0 99 9a b9 bc ff 71 0c 3e 77 40 1a 3e 5b d9 c5 be
       -0.022656726 0.13715361 0.15063654 -0.38642392
0003b0 90 bc a7 be 8c 88 3b bd e8 5b 64 3e 33 39 4a be
       -0.3276105 -0.045784518 0.22300684 -0.19748382
0003c0 50 a4 38 3e 81 1b 4e 3e cf d6 11 3e 7c dc d9 3d
       0.1803143 0.2012768 0.14242099 0.10637757
0003d0 b9 60 dd be 3e 12 8b be 7c 7b e0 bd b6 ac 58 3d
       -0.43237856 -0.27162355 -0.10961053 0.052899085
0003e0 13 7a ac 3c a3 9c e4 be 32 1c 31 be da 77 c2 be
       0.021054303 -0.44650754 -0.17295912 -0.37982064
0003f0 e8 5e 00 be bc 7a 10 bf fe 67 ec be 57 4b 18 be
       -0.12536204 -0.5643728 -0.4617309 -0.1487249

fc2.bias f4 [10]
000000 85 e5 b0 be 27 6b ab be 5c 92 c5 be 3c 45 a6 be
       -0.3455011 -0.33480188 -0.38588226 -0.32474697
000010 46 3f 18 3f 93 5b 08 bd 36 e7 8e be 1f 08 8e be
       0.5947155 -0.033290457 -0.27910775 -0.2774057
000020 60 8c 76 3f f7 a6 81 3e
       0.96307945 0.25322697
